…
W0730 20:40:08.467855 139793529894784 deprecation.py:506] From /usr/local/lib/python3.6/dist-packages/keras/backend/tensorflow_backend.py:3445: calling dropout (from tensorflow.python.ops.nn_ops) with keep_prob is deprecated and will be removed in a future version.
Instructions for updating:
Please use `rate` instead of `keep_prob`. Rate should be set to `rate = 1 - keep_prob`.
_________________________________________________________________
Layer (type)                 Output Shape              Param #   
=================================================================
input_1 (InputLayer)         (None, 3000, 1)           0         
_________________________________________________________________
batch_normalization_1 (Batch (None, 3000, 1)           4         
_________________________________________________________________
sinc__conv__layer_1 (Sinc_Co (None, 2748, 80)          160       
_________________________________________________________________
max_pooling1d_1 (MaxPooling1 (None, 916, 80)           0         
_________________________________________________________________
layer__normalization_1 (Laye (None, 916, 80)           160       
_________________________________________________________________
leaky_re_lu_1 (LeakyReLU)    (None, 916, 80)           0         
_________________________________________________________________
conv1d_1 (Conv1D)            (None, 910, 60)           33660     
_________________________________________________________________
max_pooling1d_2 (MaxPooling1 (None, 303, 60)           0         
_________________________________________________________________
layer__normalization_2 (Laye (None, 303, 60)           120       
_________________________________________________________________
leaky_re_lu_2 (LeakyReLU)    (None, 303, 60)           0         
_________________________________________________________________
conv1d_2 (Conv1D)            (None, 297, 60)           25260     
_________________________________________________________________
max_pooling1d_3 (MaxPooling1 (None, 99, 60)            0         
_________________________________________________________________
layer__normalization_3 (Laye (None, 99, 60)            120       
_________________________________________________________________
leaky_re_lu_3 (LeakyReLU)    (None, 99, 60)            0         
_________________________________________________________________
conv1d_3 (Conv1D)            (None, 93, 60)            25260     
_________________________________________________________________
max_pooling1d_4 (MaxPooling1 (None, 31, 60)            0         
_________________________________________________________________
layer__normalization_4 (Laye (None, 31, 60)            120       
_________________________________________________________________
leaky_re_lu_4 (LeakyReLU)    (None, 31, 60)            0         
_________________________________________________________________
flatten_1 (Flatten)          (None, 1860)              0         
_________________________________________________________________
layer__normalization_5 (Laye (None, 1860)              3720      
_________________________________________________________________
dense_1 (Dense)              (None, 2048)              3811328   
_________________________________________________________________
batch_normalization_2 (Batch (None, 2048)              8192      
_________________________________________________________________
leaky_re_lu_5 (LeakyReLU)    (None, 2048)              0         
_________________________________________________________________
dropout_1 (Dropout)          (None, 2048)              0         
_________________________________________________________________
layer__normalization_6 (Laye (None, 2048)              4096      
_________________________________________________________________
dense_2 (Dense)              (None, 2048)              4196352   
_________________________________________________________________
batch_normalization_3 (Batch (None, 2048)              8192      
_________________________________________________________________
leaky_re_lu_6 (LeakyReLU)    (None, 2048)              0         
_________________________________________________________________
dropout_2 (Dropout)          (None, 2048)              0         
_________________________________________________________________
layer__normalization_7 (Laye (None, 2048)              4096      
_________________________________________________________________
dense_3 (Dense)              (None, 2048)              4196352   
_________________________________________________________________
batch_normalization_4 (Batch (None, 2048)              8192      
_________________________________________________________________
leaky_re_lu_7 (LeakyReLU)    (None, 2048)              0         
_________________________________________________________________
dropout_3 (Dropout)          (None, 2048)              0         
_________________________________________________________________
dense_4 (Dense)              (None, 265)               542985    
=================================================================
Total params: 12,868,369
Trainable params: 12,856,079
Non-trainable params: 12,290
_________________________________________________________________
model summary:  None
W0730 20:40:08.836268 139793529894784 deprecation_wrapper.py:119] From /usr/local/lib/python3.6/dist-packages/keras/optimizers.py:790: The name tf.train.Optimizer is deprecated. Please use tf.compat.v1.train.Optimizer instead.
…
